Projects_Completed_For_Bsc/4thYear/SmartCop/smartcop-mobile-application/IntegratedGame/SmartCopGame/assets/converted_model_2.tflite (tflite, 2592 bytes, 8 tensors)

dense_5/bias f4 [10]
0	0xbe10af3c	-0.14129347
1	0x3e2d6a7b	0.1693515
2	0xbe5ea757	-0.21743523
3	0x3eeaf2e9	0.4588845
4	0x3e633d8c	0.22191447
5	0x3f26f239	0.6521335
6	0x3e4cec8a	0.20012107
7	0xbead32f4	-0.33827937
8	0xbd345b41	-0.04403234
9	0xbec4e956	-0.3845927

dense_6/bias f4 [8]
0	0xbf30bbba	-0.6903645
1	0xbf0363b3	-0.51324004
2	0x3dbfb4ae	0.09360634
3	0x3db3a027	0.08770781
4	0xbea9e246	-0.33180445
5	0xbee1f4b4	-0.44132006
6	0xbe48d547	-0.19612609
7	0x3ecc0d77	0.39854023

dense_7/bias f4 [6]
0	0x3eaff751	0.34368375
1	0xbf00406a	-0.5009829
2	0x3d4a07ff	0.049324032
3	0xbf2f475f	-0.6846828
4	0x3ebbb501	0.36661533
5	0x3ead4755	0.33843485

dense_8/bias f4 [3]
0	0xbe43e8dd	-0.19131799
1	0xbe436eb1	-0.19085194
2	0x3e59eacf	0.21280979

dense_5/MatMul f4 [10, 2]
0	0x3f51ff4c	0.8203018
1	0xbf5242db	-0.82133263
2	0x3ec0794c	0.37592542
3	0xbf19af0d	-0.6003273
4	0xbf0fe9d8	-0.5621619
5	0x3fa2b3f0	1.2711163
6	0xbed64089	-0.4184611
7	0x3f71cee8	0.9445634
8	0xbf8a071c	-1.078342
9	0x3f225f9e	0.6342715
10	0x3f468781	0.7755051
11	0xbe7aac8a	-0.24479881
12	0xbf67a669	-0.90488297
13	0x3f1c2f21	0.61009413
14	0x3ec14104	0.37744915
15	0x3ef7f280	0.484272
16	0xbd8ae57f	-0.06782054
17	0xbf5970b0	-0.8493757
18	0xbf18b2d6	-0.5964788
19	0x3eea6788	0.45782113

dense_6/MatMul f4 [8, 10]
0	0x3ede56c4	0.43425572
1	0x3c9a5a7a	0.01884197
2	0xbbe27754	-0.0069111977
3	0xbe2dded6	-0.16979536
4	0xbe6450bd	-0.22296424
5	0xbf641052	-0.890874
6	0x3e76dcba	0.24107638
7	0x3d9fa9c6	0.077960536
8	0x3ef88794	0.48540938
9	0xbe7c2be6	-0.24626121
10	0x3ee9f450	0.45694208
11	0x3f1147f3	0.5675041
12	0xbf4eb5e3	-0.8074629
13	0xbfaadd15	-1.3348719
14	0xbf81c56c	-1.0138373
15	0xbe864d63	-0.26230916
16	0xbf6c64c4	-0.92341256
17	0x3f034a79	0.5128551
18	0x3e3e4826	0.1858221
19	0x3e5061d2	0.20349815
20	0xbf2cc3d0	-0.67486286
21	0xbf86a528	-1.0519152
22	0x3f675af2	0.90373147
23	0x3f31e44f	0.69488996
24	0x3edcab9f	0.43099687
25	0xbf15a812	-0.5845958
26	0x3f26b797	0.65123886
27	0x39eb6cee	0.00044903852
28	0x3efade24	0.48997605
29	0xbebde0f8	-0.370857
30	0x3f97b489	1.185197
31	0x3e46bcb7	0.19407926
32	0xbf501683	-0.8128435
33	0xbb584456	-0.0032999716
34	0xbf2c0ac5	-0.67203933
35	0x3f1bf185	0.60915405
36	0xbf544a3c	-0.8292577
37	0xbe221b0b	-0.15830629
38	0x3e524541	0.20534231
39	0xbeccf880	-0.4003334
40	0x3f5b7f2c	0.85740924
41	0x3f0e92ad	0.5569256
42	0xbf050bdb	-0.51971215
43	0xbee4cfd9	-0.44689825
44	0xbe908915	-0.28229585
45	0xbe7e8cde	-0.24858424
46	0xbf35304e	-0.7077683
47	0x3eb472f3	0.3524395
48	0xbd094e70	-0.03352207
49	0x3eb77b47	0.3583624
50	0x3f0eebf5	0.5582879
51	0xbe96cf0a	-0.29454833
52	0xbed3e277	-0.41383716
53	0xbf08b673	-0.53403395
54	0x3e1b0722	0.1513944
55	0xbe2b9e71	-0.1675966
56	0xbeda4cee	-0.42636818
57	0xbea63b05	-0.32466903
58	0xbeb4362f	-0.3519759
59	0x3db9510a	0.0904866
60	0xbf85b0c8	-1.0444574
61	0xbf0adecf	-0.5424623
62	0x3f0d0f01	0.5510102
63	0x3ef57098	0.47937465
64	0x3f10a631	0.5650359
65	0xbf36ecb8	-0.71454954
66	0x3f4172c2	0.7556573
67	0xbebd8050	-0.37011957
68	0x3f00d8cb	0.503308
69	0x3f2a8061	0.6660214
70	0x3f5f0f99	0.87133175
71	0x3f0f0789	0.5587087
72	0xbf3a9ede	-0.7289866
73	0x3e543ebd	0.20727058
74	0xbf61745a	-0.88068163
75	0x3f332add	0.6998728
76	0xbf680fe3	-0.9064924
77	0xbecd12fa	-0.4005354
78	0xbe57511f	-0.21027039
79	0xbf2912dc	-0.660444

dense_7/MatMul f4 [6, 8]
0	0x3e242866	0.16031036
1	0xbd0bb3df	-0.034107085
2	0x3d08ff3d	0.03344654
3	0x3f87620b	1.0576795
4	0xbde71595	-0.11283413
5	0xbd2390f8	-0.039933175
6	0xbf80a65c	-1.0050769
7	0x3f86626a	1.0498784
8	0x3ea16b3c	0.31527126
9	0x3fb127a8	1.3840227
10	0xbe8dcc96	-0.2769515
11	0x3fb29a74	1.3953385
12	0x3fa4ea22	1.2883952
13	0x3f2d5314	0.6770489
14	0xbf3307f7	-0.6993403
15	0xbe0d3962	-0.13791421
16	0xbf054e78	-0.5207286
17	0xbf9f0a30	-1.2424984
18	0x3f851399	1.0396606
19	0xbf6786d3	-0.904401
20	0xbef90a5c	-0.48640716
21	0xbed5ad4c	-0.41733778
22	0x3e5e24f3	0.21693783
23	0xbf2bcc71	-0.6710883
24	0x3ebbdfd0	0.36694193
25	0x3e8025ac	0.2502874
26	0x3f86dbf7	1.0535878
27	0xbf9ecd4d	-1.2406403
28	0xbb43cb94	-0.002987598
29	0x3e83d624	0.25749314
30	0x3f91e87e	1.1399076
31	0xbf86c19d	-1.0527836
32	0xbf801836	-1.0007389
33	0x3de6f61b	0.1127741
34	0xbf8fc1d9	-1.1231033
35	0x3fa89a78	1.317214
36	0x3e03bb1b	0.12864344
37	0x3e5a4da8	0.21318686
38	0xbe6c1762	-0.23055795
39	0x3fa79f4e	1.3095491
40	0xbf9bab2b	-1.2161611
41	0xbf814fd4	-1.0102487
42	0x3f47b3dd	0.78008825
43	0xbfa3db0a	-1.280122
44	0xbf53b577	-0.8269877
45	0xbf4f0d06	-0.8087925
46	0x3f56197f	0.83632654
47	0xbe2d9ffd	-0.16955562

dense_8/MatMul f4 [3, 6]
0	0xbfceb5a2	-1.614918
1	0xbe1e86c6	-0.154811
2	0x3f9d58a2	1.2292674
3	0x3fe44213	1.7832664
4	0xbf6176d7	-0.8807196
5	0x3f7bd482	0.98371136
6	0x3f4670d0	0.7751589
7	0x3fe91237	1.8208684
8	0xbffa4b4f	-1.9554232
9	0xbfa5463f	-1.2912062
10	0x3fe05405	1.7525641
11	0xbfd6c1a8	-1.6777849
12	0x3fbd1d98	1.4774656
13	0xbf94d280	-1.162674
14	0x3e145c8b	0.14488427
15	0xbfb0b6a9	-1.3805743
16	0x3facaa9b	1.3489565
17	0x3fd3889a	1.6526062
